best_model_t2m.pth (torch, 12104 bytes, 3 tensors)

block.conv.weight f4 [16, 17, 3, 3]
0.05269233 -0.01708659 -0.020557651 0.00395365 0.10536896 0.099805206 0.00084840134 0.065802395
0.0030618345 -0.08610388 -0.004415657 0.029229125 -0.08446097 0.0065083937 -0.043304622 -0.013431468
-0.041465577 0.033917684 -0.055455826 -0.065861955 0.03833508 0.03804506 0.04141463 -0.03216804
-0.022691542 0.010482388 0.09049537 0.004327311 -0.04677612 0.09966024 0.052437395 0.092206076
-0.019294709 -0.03688252 0.011076033 0.024411267 0.016899172 0.04248974 -0.004750831 0.040739313
-0.07218448 0.06511415 0.014193293 -0.0004061408 0.05886848 0.030582534 0.036915876 0.020042425
-0.031652335 -0.007117372 -0.07246803 0.017167801 0.033567015 0.079349265 -0.080876045 -0.0046671154
0.06468967 0.089037664 0.017943222 0.07653375 0.03731453 -0.028220667 0.014484518 -0.05490245
0.00076908804 0.037143473 -0.063209616 -0.06824936 -0.026529495 -0.010016752 0.03310136 -0.0041617844
-0.019332875 -0.038688593 0.036702026 0.062885374 0.009147333 -0.002491044 0.009232044 -0.09104919
-0.0702558 -0.015659455 -0.09969032 -0.0025920449 0.035794146 -0.086105525 0.04186347 -0.027689578
0.010871762 0.049260173 -0.05548076 0.016727941 -0.045251135 0.014592011 -0.058258142 -0.039553743
0.02391525 0.10089058 -0.056329712 -0.03508773 0.047582123 -0.040966474 0.021654531 -0.016082281
0.038440045 -0.08622298 0.034905273 0.011862992 0.043349862 0.009032813 0.087057434 -0.040249903
-0.024225367 0.04127618 0.058708586 0.088709675 -0.046936646 -0.06691068 -0.051225554 -0.078071065
0.003814565 0.053725906 0.05510232 0.041503828 -0.0383033 0.02903248 -0.037327647 -0.014649325
0.05961963 0.04103751 -0.0039041736 0.029727723 -0.029530887 -0.02695691 -0.04913896 0.0332012
-0.041527227 -0.028053818 0.05087782 -0.016543262 -0.025241528 0.03925037 0.045346588 -0.055159148
0.071728915 0.015594916 0.07804949 0.07243696 0.052671116 0.04831054 0.05957796 0.06887523
-0.043012388 0.0063968194 -0.08991616 -0.06754415 -0.07843446 -0.05586556 -0.016363462 -0.028872903
-0.005888132 0.027967183 0.049574528 -0.049164142 0.07655333 -0.06935225 -0.056676578 0.059691116
0.017911693 0.06262357 -0.038161088 -0.018873855 -0.061601218 -0.05050285 -0.102307975 -0.021416448
0.036616653 0.007590564 0.04186636 0.041007504 -0.0769528 0.046724796 -0.008690514 0.058868904
-0.0059411875 -0.027338568 -0.06380605 -0.02358432 -0.058488827 -0.07437053 -0.07348423 0.1065647
0.019440467 -0.04828334 0.079206996 -0.017156748 0.035000283 -0.023035198 -0.046080805 0.0058991276
0.07947469 0.0005843737 0.051837955 0.0025279794 0.039953794 0.044245012 0.012629159 -0.042983886
0.043504532 0.03705408 0.053442318 -0.024024947 0.031226058 -0.01607819 -0.054874863 -0.062975526
0.046256278 -0.012718039 0.027880833 -0.05152651 0.018794209 -0.07817188 0.066839084 -0.032490067
0.050701614 -0.0069773574 0.0013968453 -0.006220039 0.07479152 -0.025287071 0.082212396 -0.047100607
-0.03342135 -0.08276123 -0.050413046 -0.047552813 -0.022852851 0.063890986 -0.030091051 0.07358363
-0.05424939 -0.040881746 -0.06328815 -0.09695711 -0.032186802 0.01636544 -0.06024487 0.0066817664
-0.044364717 0.072981514 -0.021698331 -0.012829928 -0.05866725 0.05123249 -0.037338816 -0.08350321
00000000: ead3 573d 2df9 8bbc 8568 a8bc 9f8d 813b
00000010: aecb d73d ac66 cc3d 4067 5e3a 68c3 863d
00000020: 0fa9 483b 3b57 b0bd 37b1 90bb eb71 ef3c
00000030: dff9 acbd 5d44 d53b 3060 31bd a90f 5cbc
00000040: cfd7 29bd 45ed 0a3d a625 63bd a2e2 86bd
00000050: 3f05 1d3d 23d5 1b3d 63a2 293d a2c2 03bd
00000060: 9de3 b9bc 52be 2b3c a355 b93d 1ecc 8d3b
00000070: 5198 3fbd ab1a cc3d 98c8 563d 8ad6 bc3d
00000080: f00f 9ebc 2012 17bd 4078 353c 23fa c73c
00000090: 2270 8a3c b909 2e3d dcac 9bbb 44de 263d
000000a0: 75d5 93bd 915a 853d fc8a 683c 4cef d4b9
000000b0: 1320 713d 3988 fa3c 1a35 173d 0330 a43c
000000c0: e1a5 01bd d838 e9bb 1e6a 94bd 7da3 8c3c
000000d0: 917d 093d de81 a23d 57a2 a5bd 9aee 98bb
000000e0: 057c 843d 6159 b63d aafd 923c babd 9c3d
000000f0: 1fd7 183d 072f e7bc 7950 6d3c 64e1 60bd
00000100: a09c 493a c123 183d 0b74 81bd 52c6 8bbd
00000110: 6254 d9bc 4e1d 24bc 4b95 073d 945f 88bb
00000120: fa5f 9ebc ee77 1ebd dd54 163d 0cca 803d
00000130: b2de 153c c940 23bb 0042 173c ff77 babd
00000140: 46e2 8fbd 4248 80bc 702a ccbd 4cdf 29bb
00000150: e29c 123d 1858 b0bd 0879 2b3d 41d5 e2bc
00000160: 7a1f 323c 09c5 493d cb3f 63bd 0909 893c
00000170: 4159 39bd 5513 6f3c 17a0 6ebd 1b03 22bd
00000180: eae9 c33c b89f ce3d fcb9 66bd 27b8 0fbd
00000190: 79e5 423d 76cc 27bd d864 b13c fdbe 83bc
000001a0: 4f73 1d3d ac95 b0bd d5f8 0e3d ff5c 423c
000001b0: a08f 313d 5dfe 133c 2b4b b23d 15dd 24bd
000001c0: 4774 c6bc 3611 293d 6a78 703d 6bad b53d
000001d0: a440 40bd 7708 89bd e3d1 51bd b9e3 9fbd
000001e0: c8fd 793b b20f 5c3d f8b2 613d ebff 293d
000001f0: ece3 1cbd 86d5 ed3c e0e4 18bd b903 70bc
00000200: b733 743d f316 283d 2add 7fbb 8e87 f33c
00000210: c2ea f1bc bdd4 dcbc ef45 49bd fbfd 073d
00000220: 7418 2abd 1fd1 e5bc 4365 503d bc85 87bc
00000230: 52c7 cebc ffc4 203d 58bd 393d 8fee 61bd
00000240: 9ce6 923d d281 7f3c 69d8 9f3d d459 943d
00000250: abbd 573d 46e1 453d 0508 743d 750e 8d3d
00000260: c22d 30bd 699c d13b f725 b8bd 9654 8abd
00000270: 3fa2 a0bd 49d3 64bd ab0c 86bc de86 ecbc
00000280: 3bf1 c0bb 6f1b e53c a90e 4b3d 5760 49bd
00000290: fec7 9c3d 8d08 8ebd b325 68bd ac7e 743d
000002a0: 8bbb 923c c940 803d cd4e 1cbd 589d 9abc
000002b0: 8f51 7cbd 14dc 4ebd d886 d1bd 8c71 afbc
000002c0: 58fb 153d 44ba f83b 0f7c 2b3d 7cf7 273d
000002d0: 6e99 9dbd 8062 3f3d a862 0ebc 8520 713d
000002e0: 4bae c2bb 22f5 dfbc bfac 82bd e733 c1bc
000002f0: fb91 6fbd 944f 98bd e67e 96bd 983e da3d
00000300: 9d41 9f3c c0c4 45bd 4737 a23d 4f8c 8cbc
00000310: 755c 0f3d 50b4 bcbc 3abf 3cbd 784d c13b
00000320: a0c3 a23d a830 193a 0954 543d 75ac 253b
00000330: 97a6 233d 423a 353d 88ea 4e3c df0f 30bd
00000340: cf31 323d 05c6 173d 55e6 5a3d f7cf c4bc
00000350: cacd ff3c 69b6 83bc 77c4 60bd 50f9 80bd
00000360: 3977 3d3d 525f 50bc 5866 e43c 760d 53bd
00000370: 50f6 993c 9418 a0bd eee2 883d 4e14 05bd
00000380: 7fac 4f3d 51a2 e4bb 5a16 b73a 78d1 cbbb
00000390: 4c2c 993d d526 cfbc f95e a83d 91ec 40bd
000003a0: d3e4 08bd b87e a9bd e97d 4ebd bdc6 42bd
000003b0: e735 bbbc 47d9 823d 8281 f6bc 04b3 963d
000003c0: 9c34 5ebd 9e73 27bd 389d 81bd 7391 c6bd
000003d0: 4fd6 03bd d110 863c 53c3 76bd b8f2 da3b
000003e0: c7b7 35bd 5577 953d b3c0 b1bc 9e34 52bc
000003f0: 124d 70bd 29d9 513d 96f0 18bd bb03 abbd

block.conv.bias f4 [16]
-0.042928398 -0.04709253 -0.10555083 -0.098146684 0.06230724 -0.04081563 0.02024992 -0.026078688
0.069048174 -0.043171685 0.02361475 -0.0113831535 -0.09046411 -0.0069268933 -0.027059931 -0.053694397
00000000: b0d5 2fbd 19e4 40bd 092b d8bd 2101 c9bd
00000010: e035 7f3d 4a2e 27bd 29e3 a53c f9a2 d5bc
00000020: 2169 8d3d cbd4 30bd b873 c13c 6880 3abc
00000030: 3f45 b9bd fefa e2bb caac ddbc a8ee 5bbd

out_conv.weight f4 [1, 16, 1, 1]
0.23951222 -0.28370193 -0.38609654 -0.21755435 0.3043472 -0.26308575 0.29404905 -0.16156255
-0.27074987 -0.37429854 0.28579333 0.30829325 -0.27888796 0.32975036 0.25707418 -0.20144323
00000000: b142 753e 6141 91be 72ae c5be 91c6 5ebe
00000010: 65d3 9b3e 2db3 86be 998d 963e a770 25be
00000020: ba9f 8abe 0fa4 bfbe 8153 923e 9dd8 9d3e
00000030: 67ca 8ebe 0ad5 a83e 3a9f 833e 2247 4ebe
